wyoming_openwakeword/models/barabashka_v0.1.onnx (onnx, 206961 bytes, 9 tensors)

const_fold_opt__44 f4 [32, 1]
000000 f6 6f 80 3e a1 9d 9b 3d 56 0a 41 3e 58 85 84 3d
       0.2508542 0.07598425 0.18851599 0.06470746
000010 2b 2d b2 be ec 6f 5f bc 68 ce 26 bc dc d3 a9 be
       -0.34800085 -0.013637524 -0.010181047 -0.33169448
000020 5d a4 ed 3d f6 da 95 3e 67 2f 1d 3a bd 08 d2 3d
       0.116036154 0.29268616 0.0005996138 0.10255573
000030 b9 05 b0 be 3e 31 69 3e 67 f6 ab be 1c 14 06 3e
       -0.34379366 0.2277269 -0.33586428 0.13093609
000040 5f 74 d1 3d 17 b6 3d 3d 3a 78 ac be 02 31 4d 3e
       0.10227274 0.046316233 -0.33685476 0.20038226
000050 19 a2 0a 3e cb 32 a2 be 11 4f ab bd da 43 9a be
       0.13538398 -0.31679377 -0.0836469 -0.30129892
000060 08 26 c8 3c 60 65 96 3d db 66 9b be 4f ee 99 be
       0.024432197 0.073435545 -0.3035191 -0.30064628
000070 5f b4 2a 3e db 11 af be 6e b9 21 3e 64 33 3b 3e
       0.16670369 -0.3419331 0.15793392 0.18281323

const_fold_opt__42 f4 [32, 32]
000000 81 4d b6 3d 40 85 d7 3d a0 8a 08 be 11 63 11 3d
       0.089015014 0.10523462 -0.13334131 0.035494868
000010 2c 16 11 3e 9d ac e0 bd 42 ec 04 3e 58 0d 27 bd
       0.14168614 -0.10970423 0.1298075 -0.04078421
000020 c6 d5 90 3d 75 c2 d0 bd 29 ed 09 be f0 20 08 3e
       0.07072024 -0.1019334 -0.13469376 0.13293815
000030 21 5e 38 3e 35 8d 5a bd 5b c5 95 bd 7c 81 a2 3d
       0.18004657 -0.05335732 -0.07313033 0.079348534
000040 00 ef ed 3d 74 a5 42 bd 96 cb ab bc 3b cc 80 bd
       0.11617851 -0.04752107 -0.0209711 -0.06288954
000050 54 c3 46 3d 88 7c dc 3d 8c ae 06 bd 04 c8 e1 bd
       0.048526123 0.1076594 -0.032881305 -0.11024478
000060 bf 10 2f be 10 57 28 be 7e 85 1e be 5d f2 c8 bd
       -0.17096232 -0.16439462 -0.1548061 -0.09811852
000070 09 b9 ff 3c 5e a7 31 3e b4 87 15 be 62 34 21 3d
       0.031216161 0.17349002 -0.14602548 0.039356597
000080 a3 4d f6 bd a0 5e 0f 3e 1b 2f 0e bd 5e 29 a6 3d
       -0.12026527 0.1400094 -0.034712892 0.08113359
000090 e2 17 e6 bc 65 74 cb bd 6d f3 e2 bd 17 5f 18 bd
       -0.02808756 -0.0993431 -0.11081586 -0.03720006
0000a0 26 44 12 3e 28 b4 01 be 6b a5 25 3e 67 d6 f1 3d
       0.14283809 -0.1266638 0.16176383 0.11808472
0000b0 d9 b8 98 3d 7a 86 08 3e 21 2b 91 bd 61 ca e3 bd
       0.07457132 0.13332549 -0.07088304 -0.11122585
0000c0 e3 4f 9d bd a4 6f 81 3b 7f 9a eb bd 35 b0 9d 3d
       -0.07681253 0.003950076 -0.11504077 0.076996244
0000d0 58 97 18 3e ba 82 0b bd 38 3a 72 3d 43 41 4e 39
       0.14901483 -0.034060217 0.059137553 0.00019670003
0000e0 3f aa 1a be 6a 17 1d 3e 49 79 35 bc 71 9f c6 3d
       -0.15104006 0.15340963 -0.01107628 0.0969838
0000f0 f5 c2 2b 3d 0d 8c b5 3b 63 ff aa 3d 46 06 65 bc
       0.041933972 0.005540377 0.083494924 -0.0139785465
000100 93 ae 06 3e de 2e 30 bd f4 87 c1 bd 9b a4 fa 3d
       0.13152532 -0.043013446 -0.09449759 0.12238427
000110 35 75 13 3e 6c b6 eb 3d d3 97 96 3d c5 bc 06 3d
       0.1440018 0.115094036 0.07353177 0.03289487
000120 dc 67 d7 3b a0 00 37 be 1f 94 fc bd 1e 1d e1 3d
       0.0065736603 -0.17871332 -0.12332939 0.10991882
000130 58 43 29 be a3 90 d4 3d af 9b 49 bd b6 20 a9 3d
       -0.16529596 0.1037915 -0.049220737 0.08258192
000140 4a 2b e8 3d 01 21 2e 3d b7 c7 50 bc 15 03 35 be
       0.11336382 0.042511944 -0.012742928 -0.17676957
000150 c4 4e bd bd 4a 15 a2 3d 8c ec ea 3d 85 81 91 bd
       -0.09243539 0.07914217 0.11470899 -0.07104782
000160 1e a6 2d be b9 6c 0a be b5 24 f5 bd 9f b8 00 3e
       -0.169579 -0.13518037 -0.11969892 0.12570427
000170 5a 50 55 3c 54 c4 bd 3c dc c9 a6 3d 45 dd 44 bd
       0.013019646 0.023164906 0.0814397 -0.04806258
000180 f1 26 0d bd 3f de 16 3c fe 07 30 bd f6 97 0f bd
       -0.034460966 0.009208261 -0.042976372 -0.03505703
000190 cd 38 e1 3d 9e 35 19 bd b9 df 30 bd 75 28 43 bd
       0.10997162 -0.03740465 -0.04318211 -0.047646005
0001a0 b9 7a b5 3d 85 66 fa bd b0 95 b1 3d a6 fc 02 bd
       0.08861298 -0.12226585 0.08671129 -0.031979226
0001b0 1a 53 53 3d 8b 10 47 be 3c 7a ca 3d f1 49 95 3d
       0.051592924 -0.19439904 0.098865956 0.07289494
0001c0 7a ff c3 bc c4 8c 11 be 74 5e 1b 3d 40 48 d6 bc
       -0.023925532 -0.14213854 0.037931874 -0.026157498
0001d0 43 2b f7 3d c6 37 77 bd 50 0b e9 3d 1f b4 04 3e
       0.120687984 -0.060355924 0.11379111 0.12959336
0001e0 c1 33 0a 3c 31 9a ee 3d 5b 88 f5 3d ab 5d ca 3d
       0.008435191 0.116505034 0.11988898 0.09881147
0001f0 c1 95 a1 bc f3 7c 2b 3e 93 72 4d 3d 5e 0e f8 3d
       -0.019724729 0.16746883 0.050158095 0.12112115
000200 c0 a7 46 3b 45 9a fa 3d ef 38 8e 3d 69 00 92 3d
       0.003031239 0.12236456 0.06944453 0.071289845
000210 86 9c f7 3d 68 1e 15 3e 3c 02 71 3d 60 d6 e8 bd
       0.12090401 0.1456238 0.05884002 -0.11369014
000220 68 aa e7 bd 22 8c 1b 3e fc 40 a4 bc 4f 78 3e 3b
       -0.11311799 0.15190175 -0.020050518 0.0029063409
000230 c9 fa 2a be 92 20 bf 3c 4c 1d b3 bd ed da bf 3d
       -0.1669723 0.02333096 -0.08745822 0.09367929
000240 71 19 2f 3e 80 7b 25 bd c7 44 ad bd 15 fd b8 bd
       0.17099549 -0.040400982 -0.08460384 -0.090326466
000250 58 26 1e 3e 99 98 2a be fd 2d 59 3d e6 3c 15 bd
       0.15444314 -0.16659774 0.053022373 -0.03643503
000260 d4 9f 03 3e 9e 6c 36 3e d3 85 ee bd 54 2c 81 bd
       0.12853938 0.17814872 -0.11646619 -0.06307283
000270 bc a2 0b 3e 1f e6 0a be ba 1f 0e be 0c f3 b6 3d
       0.13636297 -0.13564347 -0.1387929 0.08933076
000280 91 1a ef 3a f6 9b a3 bd 66 ed 9c 3c 89 ba 00 be
       0.001824217 -0.079887316 0.01915617 -0.12571158
000290 f5 32 0b 3e 86 9f 11 be c1 44 c3 bd dd 5f 16 3e
       0.13593657 -0.1422101 -0.09534598 0.14685006
0002a0 d0 6e a2 bd d9 c6 92 bd 6a 40 01 be 76 3e 82 3d
       -0.07931292 -0.071668334 -0.12622228 0.0635957
0002b0 8b 07 ca 3c 3d ed 2f 3e 34 96 39 bb 73 e6 38 be
       0.0246618 0.17180343 -0.0028318288 -0.1805666
0002c0 31 6f 6c bd eb 37 9f 3d 0c 06 2e 3e bf b2 28 3d
       -0.057723228 0.077743374 0.16994494 0.04118609
0002d0 e0 60 83 bd 02 b4 d4 3b ba 11 aa bd 25 4b f5 3d
       -0.06414962 0.006491185 -0.08304162 0.11977223
0002e0 1b 99 0f 3e e8 ed 31 bd d5 9c 90 3c 95 20 57 3d
       0.14023249 -0.043439776 0.017652908 0.052521307
0002f0 5d ea 13 3e 84 b4 19 bd 6e eb 64 bd 61 74 6b bd
       0.14444871 -0.03752567 -0.055888586 -0.057484034
000300 f9 75 23 be 02 83 23 3e 1a 56 1f be 5d 84 aa bd
       -0.15962972 0.15967944 -0.15560189 -0.083260275
000310 09 f6 f8 3c 6c 3f a3 3d 1a e9 b0 bd ee 28 9d 3d
       0.030390756 0.07971081 -0.086382106 0.07673822
000320 14 2e 81 bd 4b d6 fe bd 47 63 38 3c 14 6a ad bd
       -0.06307617 -0.12443217 0.011254138 -0.084674984
000330 e3 94 60 bd 48 6c d7 bc 23 b5 2c be 0a 00 0d be
       -0.05482949 -0.02629675 -0.16865973 -0.13769546
000340 63 b8 b8 3d db f3 00 be 70 ed 5e bd 02 eb 9b 3d
       0.09019544 -0.12593023 -0.054425657 0.076131836
000350 f5 24 e6 3c 4c e2 65 bc 9d a5 c2 3d 53 c5 d0 3d
       0.028093794 -0.014031004 0.095042445 0.101938866
000360 9a ce 65 bc 41 ae af 3c c7 47 7d bc cf 13 0a be
       -0.014026308 0.021445395 -0.015459008 -0.13484119
000370 8d f7 a6 3b 4d d7 28 be 70 11 e3 3d 69 5d c3 3d
       0.0050954283 -0.1648838 0.1108731 0.09539301
000380 40 44 dc bc cb d6 98 3d 2a 83 1d 3e f6 1d 31 3e
       -0.026888013 0.074628435 0.15382066 0.17296585
000390 48 88 9f 3d cf 90 20 3c 99 ef 21 3e ef a6 f3 3d
       0.077896655 0.00980015 0.15814056 0.118970744
0003a0 e5 72 ed bd a3 f8 13 3e e8 08 05 be 3b 13 00 be
       -0.1159418 0.14450316 -0.12991679 -0.12507336
0003b0 c8 13 1a be 6b 2f cb 3a 0b 07 3b be 2e 31 b4 3d
       -0.15046608 0.0015501803 -0.18264405 0.08798443
0003c0 8f ea 66 3d ce f8 86 3d a9 58 0a 3e eb 79 16 bd
       0.056376036 0.065904245 0.13510384 -0.036737364
0003d0 30 52 b1 ba 92 4d bb 3d b0 14 09 3e 42 89 6d bd
       -0.0013528522 0.09145655 0.13386798 -0.057992227
0003e0 2b cd 13 be ef 48 7f 3d 83 1d 0a be 87 15 e3 3b
       -0.14433734 0.062325414 -0.1348782 0.0069300565
0003f0 db 1b ef 3d d4 75 b1 bd f9 f8 d2 bd 78 16 8e bc
       0.11675235 -0.08665052 -0.10301394 -0.017344698

const_fold_opt__41 f4 [1536, 32]
000000 8f 2e 90 bc 86 3d 86 3c bb 4f 42 bb 1a 9e 86 bc
       -0.017600326 0.016386759 -0.0029649574 -0.01643281
000010 9e 80 45 3c 8c 31 8a 3b 2c f1 a6 bc c6 cd 6c bc
       0.0120545905 0.004217332 -0.020378672 -0.014453357
000020 3a 77 ba bc 21 bf 51 bb 19 98 06 3d 2e e8 89 3c
       -0.02276193 -0.003200479 0.032859895 0.016834345
000030 f7 70 98 bc cc be 0e 3c e3 ba 54 bc b6 68 8a 3b
       -0.018608553 0.008712482 -0.01298401 0.0042239083
000040 5e 2a a0 bc d3 8f ae 3c b8 d7 19 3c 64 e5 87 bc
       -0.019551452 0.021308815 0.00938981 -0.016588874
000050 e1 20 66 3c b3 25 d1 3b 8e 86 37 bc 96 81 d1 3a
       0.014045925 0.006382668 -0.011201514 0.0015984054
000060 db 68 c3 3c bc 9a b5 bc 22 e3 59 3c 57 5f 0f bc
       0.02385371 -0.02216851 0.013298782 -0.008750758
000070 6c e6 c3 bc 20 d1 e6 bc 50 76 81 bc 56 40 57 3c
       -0.023913585 -0.02817589 -0.015803486 0.0131378975
000080 bb d2 ba 3c 0a ec 95 bc 58 09 23 3a 83 43 22 3c
       0.022805562 -0.018301029 0.0006219349 0.009903791
000090 02 0f 9b 3c aa 1c 5e 3c a9 fd 7d bc fe 94 f2 bb
       0.018928055 0.013556639 -0.015502372 -0.007403015
0000a0 83 4c 71 bc 48 74 66 bc 04 e1 b1 ba 65 60 7e 3c
       -0.0147277145 -0.01406581 -0.0013571088 0.015525912
0000b0 a7 02 b6 bc c1 25 24 bb 44 1b ac 3c 47 2c e9 b9
       -0.022218062 -0.0025046917 0.021009095 -0.00044474212
0000c0 c3 8c 19 bc 00 79 9b bc d0 b4 6e 3b 15 29 08 3b
       -0.009371939 -0.018978596 0.003642369 0.002077644
0000d0 f6 8d 0f 3b 03 19 c4 3b 02 81 8e 3c fe c9 0f bb
       0.0021904684 0.005984427 0.0173955 -0.0021940465
0000e0 73 85 c3 3c 7b bb 18 3c 3b 8b 60 3c 3f 01 71 3c
       0.023867344 0.009322043 0.01370507 0.01470977
0000f0 7d 58 c0 3c 57 63 63 3c 57 72 5e bc c5 f7 f1 3c
       0.023479695 0.013878665 -0.013577065 0.029537091
000100 51 8d 76 3c db ed ae ba 43 ec dc bc 9c 4b 76 3c
       0.015048341 -0.0013346033 -0.026968127 0.015032675
000110 0b cf f5 3b 03 fb d2 3c 6c 91 32 3c d3 f4 21 bb
       0.007501488 0.025754457 0.010898929 -0.0024712577
000120 c2 91 4c bc 77 64 e0 bc a8 9b 2a 3b 19 fe 3c bc
       -0.012485923 -0.027391655 0.002603272 -0.011535191
000130 5f be 12 3c cd 05 ea bc a2 57 38 bc 89 05 05 bd
       0.008956521 -0.02856722 -0.011251362 -0.03247598
000140 15 37 07 bb 60 ec 56 3c d3 39 2b 3b 0c 1a aa bc
       -0.0020632197 0.01311788 0.0026126995 -0.020764373
000150 4b 48 c1 bb 02 c8 83 3c a0 c8 95 3c 01 cf 99 bb
       -0.0058985106 0.016086582 0.018284142 -0.0046938662
000160 24 0b c5 3c a8 d6 a4 bc 1d f6 16 bd e8 97 46 3c
       0.024053164 -0.020121887 -0.036855806 0.012121178
000170 cb 82 08 3d 5e b4 ef bc 19 78 b9 3c dc 2e 01 bc
       0.03332786 -0.02926081 0.022640275 -0.007884707
000180 70 21 91 3b 7a 99 e7 3b 58 b5 fd 3a 43 21 87 3c
       0.004429035 0.0070678564 0.0019356413 0.016495353
000190 99 16 b9 bc 34 bb 0e 3c 34 c0 02 bd 28 3b bd b9
       -0.022593783 0.008711625 -0.03192158 -0.00036092964
0001a0 39 93 af bc 09 a6 4a bd 24 d3 01 bd 61 d7 a9 bc
       -0.021432506 -0.04947475 -0.0316955 -0.020732583
0001b0 ee f5 b5 3a cc 6b d2 bb 1d 93 36 bc 00 46 0a bd
       0.0013882497 -0.006421542 -0.011143473 -0.033758163
0001c0 21 9f 26 3c 9d 00 09 bd 01 cd 35 3c c2 63 c4 bc
       0.010169775 -0.03344785 0.01109624 -0.02397335
0001d0 9c 2e af 3a e5 45 2b 3a e2 ef 03 ba ed 03 1d bb
       0.0013365331 0.00065335474 -0.0005032999 -0.0023958639
0001e0 6f eb d0 ba fd 57 c1 3b 16 3b 2c bd 78 dc b8 bc
       -0.0015939305 0.0059003816 -0.042048536 -0.022566065
0001f0 8f 2b f4 bc de 44 12 bc f0 56 96 bb 61 c4 61 bc
       -0.029805927 -0.008927552 -0.0045880005 -0.013779731
000200 86 2b 81 bb 79 28 94 bc 08 96 f9 3b 1e a6 25 3b
       -0.003941956 -0.018085705 0.007616762 0.0025276016
000210 23 fc f2 3a 91 f1 2c bc a9 97 e3 3c 1d 7d 8a bc
       0.0018538277 -0.010555641 0.027782278 -0.016905362
000220 04 39 6d ba f7 33 eb 3a 28 e5 15 3c a5 1e a4 bc
       -0.00090493285 0.0017944564 0.009148873 -0.020034144
000230 ed 88 b1 bb bd 0c 28 3c a4 74 6e 3b 99 b0 14 bc
       -0.005417934 0.010256943 0.0036385441 -0.009075307
000240 7f dc 01 bc c5 2e 99 3c 68 4a 07 3c c2 59 25 bc
       -0.0079261055 0.01869906 0.008257486 -0.010092201
000250 8b c4 48 3c 71 04 5f bb b1 dc 92 bc ea 5e 46 bc
       0.012253891 -0.0034029747 -0.0179275 -0.01210759
000260 38 dc 1c bc e0 6d 50 bc f7 38 0b 3d e4 f4 ab bc
       -0.009573989 -0.012721509 0.033989873 -0.020990796
000270 b9 e7 72 bb 4d 47 ca 3b 40 b3 33 bc 1e f4 23 3c
       -0.0037064387 0.0061730505 -0.0109680295 0.010006933
000280 c8 7d 29 3c 78 16 34 3c b5 b4 07 bc 11 b7 21 bc
       0.01034493 0.010991685 -0.00828283 -0.009870307
000290 71 f9 24 bc 3f dd 11 bc 78 b0 bf bb a1 f4 9c bb
       -0.010069237 -0.008902847 -0.005849894 -0.004789904
0002a0 15 eb 8e 3a 41 26 29 bc d4 bc be 3c 17 cc 1c bc
       0.00109038 -0.010324062 0.0232834 -0.009570143
0002b0 14 16 89 bc 0d 39 cc 3c d6 64 e9 3c f8 e9 4c 3c
       -0.01673416 0.024929548 0.028490465 0.012506954
0002c0 cc 04 ab bc c3 69 b3 3c 4d 74 82 bc 98 24 ca bc
       -0.02087631 0.021901017 -0.015924597 -0.024675652
0002d0 69 39 75 3c 2c 9c f6 bb 00 78 9c 3b a4 5c bd bb
       0.014967301 -0.0075259414 0.0047750473 -0.005778866
0002e0 83 7a bc 3b 0a 0e 50 3c a1 1b 62 3c cf 1d 08 3c
       0.005751909 0.01269866 0.013800533 0.008307888
0002f0 65 0f bd ba bc 6f 8a bc 0c 13 a1 3c 3d 61 95 3c
       -0.0014424144 -0.016898982 0.019662403 0.018234843
000300 76 03 79 3c 94 90 8a 3c 32 23 4c 3c fd 50 45 3c
       0.015198579 0.016914643 0.012459563 0.012043235
000310 7a c3 8e 3c 61 ce 5a 3c cb 18 85 3c 1b c8 dc 3c
       0.017427195 0.013354869 0.016247174 0.026950886
000320 1d 27 7d bc 40 ff 51 bc 76 bf d7 3b 27 ca c8 3c
       -0.01545122 -0.012817204 0.006584103 0.024510456
000330 e4 4b 34 3c dd 4b 31 3c bd fd 9f 3b 85 af d6 ba
       0.011004422 0.01082131 0.004882543 -0.0016379213
000340 d0 1a 57 3c 35 2e 01 3c c8 10 99 3b 22 5e 02 bc
       0.013128951 0.007884552 0.00467119 -0.007957013
000350 3d f8 54 3c 23 0a 32 3c f5 ef 33 3c a2 35 c6 bc
       0.012998638 0.010866675 0.010982503 -0.024195496
000360 56 8f 5b bb 4d a3 37 3c 33 98 a4 3c 7e b3 43 3c
       -0.0033502183 0.0112083675 0.020092105 0.01194465
000370 c4 bb af 3b 6f 30 bf 3b 43 0e 70 3c 5b d4 b4 3b
       0.0053629596 0.005834631 0.014651838 0.005518479
000380 42 fd cc bb c9 1f 90 bc be 96 af bc 35 91 01 bc
       -0.0062557766 -0.017593281 -0.021434184 -0.007908155
000390 55 67 e5 bc 9d 7e dc 3b ef a5 3d 3c f6 0d 19 3c
       -0.028003374 0.0067289607 0.011575206 0.009341707
0003a0 68 09 60 3c 61 bd 11 3c e0 df 1d bb 93 40 24 bb
       0.013674118 0.008895249 -0.0024089739 -0.0025062903
0003b0 6d 5a c8 3b 7f 03 92 3c 9f 45 de 3b 63 f2 6d 3c
       0.006114295 0.017823933 0.006783202 0.0145231215
0003c0 4c b3 89 bc ed 11 e2 bc 19 bc 84 bc 8a 31 ed bc
       -0.016809128 -0.027596438 -0.016202973 -0.028954286
0003d0 5d f2 52 bc f3 c4 4c 3a d6 e4 ea bb b7 6f 5e bb
       -0.012875167 0.000781133 -0.0071683927 -0.00339411
0003e0 38 46 a2 bc 0a 31 9b bc ed d1 9a 3c e6 f7 40 bc
       -0.019808874 -0.018944282 0.018898929 -0.011777854
0003f0 b2 ae 19 bd 22 28 b8 bc 45 9a ce 3b b1 bf e9 bb
       -0.037520118 -0.022480074 0.0063050115 -0.007133447

Const_7 f4 [32]
000000 d4 fe ac 3d 99 f9 69 3b 43 8a 7a 3d a3 0c bb 3c
       0.08447042 0.003570175 0.061167013 0.022833174
000010 00 86 5c 3e e0 b0 d7 bc 5e 3d 67 3b 72 78 8e 3e
       0.21535492 -0.026329458 0.003528438 0.27826267
000020 20 3e ae bb 29 9f 9e 3d 64 23 27 bc 48 82 89 3c
       -0.0053174645 0.07745201 -0.010201309 0.016785756
000030 e8 51 62 3e f4 b3 2c 3d 5e 13 73 3e 89 8b ce bb
       0.22101557 0.042163804 0.23737857 -0.006303255
000040 97 a8 73 3b cc df 72 3d d8 ce 9b 3e 87 7c 46 3d
       0.0037179345 0.05929546 0.30431247 0.048458602
000050 9d 37 b8 3c 5d 80 6f 3e 1d f6 82 3a 16 65 7c 3e
       0.022487456 0.2338881 0.000999156 0.24647936
000060 02 40 8b 3c 15 8e 37 bb e6 b5 79 3e bf 01 79 3e
       0.016998295 -0.0028008271 0.24385795 0.24317072
000070 0e b1 0e 3d 2f fc 64 3e 4d 60 3e bb 73 24 98 3c
       0.03483682 0.22361825 -0.00290491 0.018572068

Const_6 f4 [32]
000000 f3 84 8c 3f ee 65 81 3f cb 02 89 3f f1 cc 85 3f
       1.0978073 1.0109231 1.0703977 1.0453168
000010 4e e8 98 3f cb 95 79 3f 9a d8 7e 3f 84 d4 ac 3f
       1.1945894 0.9749419 0.9954926 1.3502355
000020 fc f8 7e 3f 4f d8 8f 3f 26 dc 7e 3f 06 a7 81 3f
       0.9959867 1.1237887 0.9955467 1.0129097
000030 be 2f 9a 3f 03 b3 8c 3f 33 50 9f 3f 45 88 7f 3f
       1.204582 1.099213 1.244635 0.99817306
000040 aa be 80 3f 54 6e 87 3f e7 d4 b3 3f ea 7c 87 3f
       1.0058186 1.0580544 1.4049348 1.0584996
000050 b4 15 82 3f 0e 83 9e 3f 0c 01 80 3f b5 db a1 3f
       1.0162873 1.2383745 1.000032 1.2645174
000060 37 51 82 3f 04 0d 80 3f 33 25 a1 3f a8 d3 a0 3f
       1.0181035 1.0003972 1.2589477 1.2564592
000070 6f a5 85 3f 66 71 9b 3f 51 73 7f 3f 76 29 83 3f
       1.0441111 1.2143981 0.99785334 1.0247028

Const_5 f4 [32]
000000 0f 0d 16 bd a7 e7 1e be 65 08 c2 bd 23 36 31 3c
       -0.036633547 -0.15518056 -0.094742574 0.01081613
000010 03 a0 b3 3d 7c 8d f5 3d 9a 99 9e 3d 62 99 0c bd
       0.08770754 0.11989877 0.07744141 -0.034325965
000020 3f 78 09 3d 3e cc 48 3d 0f f0 ae 3d 00 1d b7 bd
       0.03356194 0.049022906 0.08541881 -0.08941078
000030 24 a8 21 bd 6e 0a 9b bb 1b 80 6c 3c cf a2 46 bd
       -0.039466992 -0.004731468 0.01443484 -0.04849511
000040 d8 2a 15 3d e8 30 9e 3d 03 1b 9c 3d 07 4a af 3d
       0.036417812 0.07724172 0.076223396 0.085590415
000050 a4 67 92 bd c9 8f 11 3e 63 d3 aa 3d dd c0 15 3d
       -0.07148674 0.14215006 0.083411 0.036560882
000060 74 6c 47 be cc 2b a9 3d a5 26 f5 3c 76 6e d0 bd
       -0.19474965 0.08260307 0.029925654 -0.10177319
000070 3c 22 84 3c 2b b6 7b bd 45 e3 e2 3d e1 f8 20 be
       0.016129605 -0.061453026 0.110785045 -0.1571994

Const_3 f4 [32]
000000 37 a4 a0 bc 83 0f 44 bc 81 07 a5 bc 87 22 a5 3a
       -0.019609554 -0.011966589 -0.02014518 0.0012598791
000010 15 23 ac bb 6b 04 87 3c af 9b f8 bc c4 f5 91 bc
       -0.0052532055 0.016481599 -0.030347673 -0.017817385
000020 96 b1 25 3b b5 13 bc 3b 72 a2 e5 bc f7 b6 a6 bb
       0.0025282851 0.005739654 -0.028031562 -0.005087729
000030 ef 93 51 bc a3 a6 c7 3c 09 2b 9b 3c cc 01 61 3a
       -0.012791618 0.02437145 0.01894142 0.00085833366
000040 67 59 c3 bc c8 fc 51 bc a4 76 42 3c 6e e8 ae bc
       -0.023846341 -0.012816615 0.011869106 -0.021351065
000050 0a d7 1c bc ae e3 ae bb 14 94 81 3b eb f1 52 bc
       -0.009572754 -0.0053372 0.00395442 -0.012875061
000060 40 88 1d 3b 0f f8 76 bc 7e 68 ed 3b b8 c3 1f bc
       0.002403751 -0.01507379 0.0072451225 -0.009751253
000070 90 95 81 bc 52 21 76 bb c2 db 96 bc f1 77 8d bc
       -0.015818387 -0.0037556482 -0.018415336 -0.017269107

Const_2 f4 [32]
000000 0b 6b 7c 3f 3f 67 7f 3f c4 8d 7b 3f da 60 86 3f
       0.98600835 0.99766916 0.9826319 1.0498307
000010 03 c1 80 3f 32 bf 81 3f 17 d7 78 3f ee 29 7d 3f
       1.0058903 1.0136473 0.972032 0.98892105
000020 32 24 7c 3f 6e 2c 82 3f 88 b4 7c 3f c9 3f 80 3f
       0.9849273 1.0169809 0.9871297 1.0019466
000030 c8 49 7e 3f 4f e5 7e 3f ea b1 7c 3f 52 2b 82 3f
       0.9933133 0.9956865 0.98708975 1.016947
000040 62 c3 7a 3f 55 9e 7b 3f 0d ea 80 3f 4a c1 79 3f
       0.9795438 0.9828847 1.0071427 0.9756056
000050 11 71 7d 3f 26 d0 78 3f 79 62 82 3f a6 a7 7d 3f
       0.9900065 0.9719261 1.0186301 0.99083936
000060 0e ca 7a 3f 68 2e 7f 3f 54 b4 83 3f 8e 63 7d 3f
       0.9796456 0.99680185 1.0289407 0.98980033
000070 3b 2f 7b 3f e5 3e 7f 3f 0d af 7b 3f bf 28 80 3f
       0.9811894 0.99705344 0.9831398 1.0012435

Const_1 f4 [32]
000000 e3 18 e6 3a 04 19 85 bc c3 cf 22 bc 7c 0b 6e 3c
       0.0017555024 -0.01624728 -0.00993723 0.014529105
000010 a3 16 d7 bc 84 84 c7 bb 30 58 99 3c 31 76 1a 3c
       -0.026255911 -0.006088795 0.018718809 0.009427593
000020 d6 ef bc 3b 57 1d ee bb c8 73 51 b9 6c a7 81 3c
       0.0057658954 -0.007266681 -0.00019974925 0.015826903
000030 e9 93 28 bb 9c b0 81 b9 f2 30 c1 3c 5b 78 76 3c
       -0.0025722927 -0.00024736382 0.02358291 0.015043343
000040 11 a0 b6 3c 3b 4b c7 3b b6 21 6d 3a b0 6f a8 3c
       0.022293122 0.006081966 0.0009045856 0.02056107
000050 fd 4a 27 3c 7d f2 9d bc 2e 26 7d 3c 69 b1 74 3c
       0.01021075 -0.019280666 0.015450997 0.014934876
000060 7d f2 bd 3c 68 1b e4 bb a8 f7 00 3c a5 0f 37 3b
       0.023186916 -0.006961275 0.007871546 0.002793291
000070 90 15 28 bb 36 13 b4 3a e1 8b 41 3c 9f 55 fa 3a
       -0.0025647618 0.0013738635 0.011813135 0.0019099003
